____________________________________________________________________________________________________
Layer (type)                     Output Shape          Param #     Connected to                     
====================================================================================================
x_digit (InputLayer)             (None, 7)             0                                            
____________________________________________________________________________________________________
x_pos (InputLayer)               (None, 7)             0                                            
____________________________________________________________________________________________________
embedding_1 (Embedding)          (None, 7, 10)         110         x_digit[0][0]                    
____________________________________________________________________________________________________
embedding_2 (Embedding)          (None, 7, 7)          49          x_pos[0][0]                      
____________________________________________________________________________________________________
merge_1 (Merge)                  (None, 7, 17)         0           embedding_1[0][0]                
                                                                   embedding_2[0][0]                
____________________________________________________________________________________________________
bidirectional_1 (Bidirectional)  (None, 7, 34)         4760        merge_1[0][0]                    
____________________________________________________________________________________________________
lstm_2 (LSTM)                    (None, 17)            3536        bidirectional_1[0][0]            
____________________________________________________________________________________________________
repeatvector_1 (RepeatVector)    (None, 7, 17)         0           lstm_2[0][0]                     
____________________________________________________________________________________________________
lstm_3 (LSTM)                    (None, 7, 34)         7072        repeatvector_1[0][0]             
____________________________________________________________________________________________________
timedistributed_1 (TimeDistribut (None, 7, 17)         595         lstm_3[0][0]                     
____________________________________________________________________________________________________
reshape_1 (Reshape)              (None, 7, 17)         0           timedistributed_1[0][0]          
====================================================================================================
Total params: 16,122
Trainable params: 16,122
Non-trainable params: 0
____________________________________________________________________________________________________
X: 633940, Y_pred: 632697, error: 0.19607533836009716%
X: 682711, Y_pred: 681628, error: 0.15863227632189902%
…
